model/epoch_020.pth (torch, 249991 bytes, 10 tensors)

conv1.0.weight f4 [6, 1, 5, 5]
0	0xbe03686d	-0.12832804
1	0x3c559011	0.013034836
2	0xbe616ace	-0.22013399
3	0xbedd17a8	-0.4318211
4	0xbe88488d	-0.26617852
5	0xbd945836	-0.072433874
6	0x3e67fe5e	0.22655627
7	0xbe5fad3b	-0.21843426
8	0xbeec0a93	-0.46101817
9	0xbe97b2a7	-0.29628488
10	0xbcefbe4d	-0.029265547
11	0x3f19147c	0.5979688
12	0x3ea44634	0.3208481
13	0x3e102d6f	0.14079832
14	0xbc94cdcf	-0.018164543
15	0x3ec0ab5c	0.37630737
16	0x3f828534	1.01969
17	0x3f24166e	0.64096725
18	0x3f287906	0.6580967
19	0x3dbfbf41	0.09362651
20	0x3f29659a	0.66170657
21	0x3f21333f	0.6296882
22	0x3f6ed66b	0.93295926
23	0x3f4a9932	0.7914001
24	0x3eaa773a	0.33294088
25	0x3d1d9724	0.038474217
26	0x3ecfc2e9	0.40578392
27	0x3f4b5873	0.7943184
28	0x3f5dc6b0	0.866313
29	0x3daa11b6	0.08304159
30	0x3d01307e	0.031540386
31	0x3e94fab8	0.29097533
32	0x3e6b07df	0.22952221
33	0x3d3d3928	0.046197087
34	0x3eb4f08c	0.35339773
35	0xbe36415b	-0.17798369
36	0xbdbf7a5d	-0.09349511
37	0xbed67735	-0.41887823
38	0xbdf5bb0e	-0.119985685
39	0x3e1303de	0.14356944
40	0xbcce3d0f	-0.0251756
41	0xbe9e59c5	-0.30927864
42	0xbe73c11a	-0.23804131
43	0xbe1c26b2	-0.15249136
44	0x3cd3aec9	0.02584018
45	0xbddb26d9	-0.10700769
46	0xbe4f191d	-0.20224424
47	0xbd37ac2a	-0.044841923
48	0xbdbc8258	-0.092045486
49	0x3e2a03a1	0.16602947
50	0x3df34aa7	0.11879473
51	0x3ca5bba1	0.02023107
52	0xbd3f2bc9	-0.046672616
53	0xbdad0903	-0.084489845
54	0x3edb8f2f	0.42882678
55	0xbe0b9495	-0.13630898
56	0xbd1c89a8	-0.038217217
57	0xbeaed9c0	-0.34150505
58	0x3ea319cd	0.31855622
59	0x3eb5e5dd	0.35526934
60	0xbde93d8e	-0.11388694
61	0xbe64e8d5	-0.22354443
62	0x3d88e130	0.06683576
63	0x3f18c382	0.5967332
64	0x3b26e666	0.0025466918
65	0xbeafe42c	-0.3435377
66	0xbe120f8a	-0.1426374
67	0x3e30f9a7	0.17282735
68	0x3ea59926	0.32343405
69	0x3ae91416	0.0017782475
70	0x3ecf428b	0.40480456
71	0x3ee0dbb1	0.4391761
72	0x3e3f721f	0.18695877
73	0x3eabf9e3	0.33589086
74	0xbe1382f5	-0.14405425
75	0x3ebc195a	0.36738092
76	0xbe95395c	-0.29145324
77	0xbe110647	-0.14162551
78	0xbb6a6eac	-0.0035771532
79	0x3daa5275	0.08316509
80	0x3eb75a66	0.35811156
81	0xbe84ed3a	-0.2596224
82	0xbe5dc93c	-0.21658796
83	0xbd36a0dd	-0.044587005
84	0xbe05fd2d	-0.1308486
85	0x3e03a194	0.12854606
86	0x3de6b6e3	0.112653516
87	0xbdb0b1e7	-0.08627682
88	0xbec37022	-0.38171488
89	0xbecd803f	-0.40136907
90	0x3ecc9839	0.39959887
91	0xbdc01394	-0.09378734
92	0x3d584ab4	0.052805617
93	0x3c836766	0.016040515
94	0x3e961e0f	0.29319808
95	0x3e7bf662	0.24605706
96	0xbca0a686	-0.019610655
97	0x3eaf1ad8	0.34200168
98	0x3ec9c5c9	0.3940871
99	0x3e3b45f1	0.182884
100	0x3d90ce8b	0.07070645
101	0x3d78f17e	0.06077718
102	0xbe37a7a5	-0.17935045
103	0xbe106681	-0.14101602
104	0x3f033d95	0.5126584
105	0xbe3356df	-0.17513607
106	0x3e0fe9c5	0.1405402
107	0xbe2ec45c	-0.17067093
108	0xbe8894b5	-0.26675954
109	0x3f1767a2	0.59142506
110	0x3de3530a	0.11099823
111	0xbd3fa9c6	-0.046792768
112	0x3d06c436	0.032901965
113	0xbe6833dc	-0.22676033
114	0x3f16ea10	0.589509
115	0xbd75884f	-0.059944447
116	0x3e05f2a3	0.1308084
117	0xbe63b5b2	-0.2223728
118	0x39517a73	0.00019977409
119	0x3e899953	0.2687479
120	0xbc24756b	-0.01003776
121	0x3d01fc92	0.03173501
122	0xbc12ae62	-0.008952709
123	0xbe018a6a	-0.12650457
124	0x3eb1174a	0.3458808
125	0xbe8110eb	-0.2520822
126	0x3f158635	0.5840791
127	0x3e9f7f43	0.3115178
128	0xbd5d6442	-0.05405069
129	0xbd2b4fca	-0.04182414
130	0x3c9d8a9a	0.01923113
131	0x3f4e3e10	0.8056345
132	0xbe0646ec	-0.13112992
133	0xbecae8ab	-0.39630637
134	0x3d61a23e	0.055086367
135	0x3e8aab07	0.27083609
136	0x3f34af48	0.7057996
137	0xbe84d190	-0.25941133
138	0xbebad248	-0.36488557
139	0xbda3974a	-0.079878405
140	0x3f016b02	0.50553906
141	0x3eb5bcfb	0.35495743
142	0xbe70ab99	-0.2350296
143	0xbe500a4d	-0.2031643
144	0xbd5728bc	-0.05252908
145	0x3eb6ba70	0.35689116
146	0x3d3d3752	0.046195336
147	0x3db6a9a0	0.08919072
148	0xbd806fe7	-0.06271344
149	0xbd3e04a2	-0.046391137

conv1.0.bias f4 [6]
0	0x3e1d7cf3	0.15379696
1	0x3e50d2ec	0.2039296
2	0x3ccaa850	0.02473846
3	0x3cb9301b	0.022605946
4	0xbe86bf9d	-0.26318064
5	0xbde079e1	-0.109607466

conv2.0.weight f4 [16, 6, 5, 5]
0	0xbe3268db	-0.17422812
1	0xbd5902f8	-0.052981347
2	0xbd936e68	-0.07198793
3	0xbe3fc6bc	-0.18728155
4	0xbe018537	-0.12648474
5	0xbe556f43	-0.20843224
6	0x3d38e01b	0.0451356
7	0xbd1d6ec8	-0.038435727
8	0x3ca97966	0.02068777
9	0xbe4bffad	-0.19921751
10	0xbea33b40	-0.31881142
11	0x3e99d77c	0.30047214
12	0x3dbdbbff	0.09264373
13	0x3e81da0e	0.25361675
14	0xbe28fb7c	-0.16502184
15	0xbe6e136f	-0.23249601
16	0x3e0f8b7f	0.14018057
17	0xbe2ee032	-0.17077711
18	0x3e031b33	0.12803344
19	0x3e2da72e	0.16958305
20	0x3e005721	0.12533237
21	0x3c9f8b26	0.01947553
22	0xbc0846ee	-0.008317692
23	0x3e119743	0.14217858
24	0x3ca638ba	0.020290721
25	0xbdd54f9b	-0.10415574
26	0xbd61d668	-0.055136114
27	0x3cd5dce6	0.02610631
28	0x3de34b6a	0.110983685
29	0x3d1a9876	0.037743054
30	0xbda34a2d	-0.07973132
31	0xbc58a48d	-0.013222826
32	0xbcc6d0c0	-0.024269462
33	0x3dfe19e7	0.12407284
34	0x3e117c63	0.14207606
35	0xbd6dd3ef	-0.058063444
36	0xbd151b66	-0.036403082
37	0xbd69370f	-0.056937274
38	0xbdf8396d	-0.12120328
39	0xbd912b75	-0.07088367
40	0xbd9721ef	-0.07379519
41	0x3db357fe	0.087570176
42	0x3d8333e9	0.064063855
43	0x3c6738e6	0.014112687
44	0x3d81d3f0	0.06339252
45	0xbd3fd8d3	-0.04683764
46	0x3da66893	0.08125415
47	0xbbdaec54	-0.0066810045
48	0x3d9697fc	0.073532075
49	0xbd3c89b1	-0.04602975
50	0x3da25748	0.07926804
51	0x3dd5f932	0.10447921
52	0xbd5a364a	-0.05327443
53	0xbd881179	-0.06643958
54	0x3d744a70	0.0596413
55	0x3dcdb567	0.100443654
56	0xbd5b0257	-0.05346903
57	0xbdabbe8c	-0.08385953
58	0xbd8e448b	-0.06946667
59	0x3e2bab8a	0.16764656
60	0x3d8c0d2a	0.06838448
61	0xbded5be0	-0.115897894
62	0x3a30b20c	0.0006740398
63	0x3d665adf	0.056239005
64	0xbd036b06	-0.032084487
65	0x3e3e3d4f	0.18578075
66	0x3d1738e3	0.036919486
67	0x3d852fca	0.06503256
68	0x3db4deb6	0.08831541
69	0xbbb04d74	-0.005380327
70	0x3d1fa786	0.038978122
71	0xbdc1ab0a	-0.09456451
72	0x3db6d9ea	0.089282826
73	0x3e1251ce	0.14289019
74	0xbd2a4646	-0.041570924
75	0xbd7eb646	-0.06218555
76	0xbdbadb0c	-0.09123811
77	0x3d899c9b	0.06719323
78	0xbdcd62fb	-0.10028645
79	0xbe099bf7	-0.13438402
80	0xbdca5c2d	-0.098808624
81	0xbbae88cb	-0.0053263656
82	0x3d47f712	0.04881961
83	0xbbbefa90	-0.005828209
84	0xbd7c7a58	-0.061640114
85	0xbe3adeb4	-0.18249017
86	0x3d79bec4	0.060972944
87	0x3e201bc3	0.1563559
88	0xbc73503e	-0.014850674
89	0xbd960d0c	-0.07326707
90	0xbdc1719b	-0.09445497
91	0x3d5aaec2	0.05338932
92	0x3d0106f2	0.031500764
93	0x3c67996d	0.014135701
94	0x3de7d312	0.11319555
95	0xbd8d34b5	-0.06894819
96	0x3e09447b	0.1340503
97	0x3de39673	0.1111268
98	0x3dad603f	0.08465623
99	0x3e036876	0.12832817
100	0x3dad814b	0.08471926
101	0x3dde48a9	0.108537026
102	0xbdabdf0f	-0.083921544
103	0xbce98349	-0.028504984
104	0x3dd6a8e4	0.10481432
105	0x3d391867	0.045189288
106	0x3c3224b9	0.010873013
107	0xbe079751	-0.13241316
108	0xbd4ecd6a	-0.050488867
109	0x3d24fae7	0.04027834
110	0x3d9eb1b6	0.077487394
111	0xbcaaa2ec	-0.02082964
112	0xbd2ab725	-0.041678566
113	0xbd9f592c	-0.0778068
114	0x3d876baf	0.06612336
115	0x3de7611c	0.11297819
116	0x3dadd26c	0.084874004
117	0x3d0d08d5	0.03443225
118	0xbcaba119	-0.02095084
119	0x3c02cd2c	0.007983487
120	0x3dd865bb	0.105662785
121	0x3df5ce62	0.12002255
122	0x3d848875	0.064713396
123	0x3aebd198	0.0017991541
124	0xbdaeb5ee	-0.08530794
125	0xbdfa373b	-0.122175656
126	0x3d4468ae	0.047951393
127	0x3dd01e06	0.101619765
128	0xbe0a07ad	-0.1347949
129	0xbe4d3738	-0.20040596
130	0xbd9e75d0	-0.07737315
131	0x3e6c5320	0.23078585
132	0x3d65875c	0.056037292
133	0xbdc33c1a	-0.09532948
134	0xbdc7d151	-0.09756721
135	0x3d507fcb	0.050903123
136	0x3e749b3e	0.23887345
137	0xbcad581a	-0.021160174
138	0x3d3f1636	0.04665204
139	0xbd1fd402	-0.039020546
140	0x3d90d8e9	0.07072622
141	0x3dbf400f	0.0933839
142	0xbd2059fa	-0.03914831
143	0x3d27c557	0.040959682
144	0xbd28794d	-0.041131306
145	0x3dbfa377	0.0935735
146	0x3dd4dee7	0.10394078
147	0xbd9b1dd8	-0.075740516
148	0x3bb988c8	0.0056620575
149	0x3c48b580	0.012250304
150	0xbe524e57	-0.20537697
151	0xbeaf5a3d	-0.34248534
152	0xbe924238	-0.28566146
153	0xbd9b2940	-0.07576227
154	0xbe12bd74	-0.14330083
155	0x3e6874de	0.22700831
156	0x3e4c304d	0.199403
157	0x3eb8a439	0.36062792
158	0x3e37746c	0.17915505
159	0xbd90221f	-0.07037758
160	0x3e3ed484	0.18635756
161	0x3d39f811	0.04540259
162	0x3da3cd7b	0.07998177
163	0x3ca65d7d	0.02030825
164	0xbcac5e0a	-0.021040935
165	0xbdc95154	-0.09829965
166	0xbe0e09de	-0.13870952
167	0xbcb16f70	-0.021659583
168	0x3dc88fb1	0.09793032
169	0x3ddc7cc1	0.107659824
170	0x3cced963	0.025250142
171	0x3dd3c555	0.103403725
172	0xbd86e64f	-0.06586897
173	0xbdc42f03	-0.09579279
174	0xbdc154b3	-0.09439983
175	0xbd621d39	-0.05520365
176	0x3c36423d	0.011124191
177	0xbd79d204	-0.060991302
178	0x3d594437	0.05304357
179	0x3de50706	0.1118298
180	0xbcd35143	-0.025795585
181	0xbdb9e088	-0.09076029
182	0xbbfc87a4	-0.0077065993
183	0xbced7ef2	-0.028991196
184	0x3dbbe184	0.09173873
185	0xbd6d0c62	-0.057873137
186	0x3d939c7e	0.07207583
187	0x3d09f92b	0.03368489
188	0x3d5e65d3	0.054296326
189	0xbe0bd12c	-0.13654011
190	0x3e858ad2	0.26082474
191	0x3e9f6e49	0.31138828
192	0x3eafe161	0.34351638
193	0x3c6b4b50	0.014361218
194	0xbe0c4035	-0.13696368
195	0x3cd41a46	0.025891434
196	0xbdf1b1a7	-0.118014626
197	0x3cc32cb7	0.023825033
198	0x3c9e3c1e	0.019315775
199	0x3d6fbec8	0.058531553
200	0xbe024712	-0.12722424
201	0xbe01db9a	-0.12681428
202	0x3b756b75	0.0037448083
203	0x3d9770b4	0.07394543
204	0xbdc68d20	-0.09694886
205	0xbd01bec6	-0.031676076
206	0x3da7143e	0.08158158
207	0x3e0a4217	0.13501774
208	0x3d6ce9cd	0.057840157
209	0x3d1623dc	0.036655292
210	0x3d800e3a	0.062527135
211	0xbcc090a1	-0.023506464
212	0xbd6c633b	-0.05771182
213	0xbe17f958	-0.14841211
214	0x3d0bfec1	0.0341785
215	0x3d8c88c5	0.06862024
216	0x3cde0533	0.027102089
217	0x3d52ddda	0.051481105
218	0x3c0bd2b9	0.008534127
219	0xbcde90af	-0.0271686
220	0x3d02d55a	0.03194175
221	0x3d52b4d1	0.05144197
222	0x3dd2ca3b	0.10292479
223	0x3da3f162	0.080050245
224	0xbc9a42a6	-0.018830609
225	0xbdd3eeed	-0.10348306
226	0xbd89c251	-0.06726516
227	0xbdb540d9	-0.08850259
228	0xbc6545dc	-0.013993707
229	0xbd273ceb	-0.04082958
230	0x3d844c84	0.06459907
231	0x3e485ed3	0.19567423
232	0x3d2d954e	0.042378716
233	0x3c4ea344	0.012612168
234	0x3d36c8e7	0.04462519
235	0x3d22a4fc	0.039708123
236	0x3da4220b	0.08014306
237	0x3d625779	0.0552592
238	0xbca627c5	-0.020282635
239	0x3c1955d9	0.009358847
240	0x3c84e3a2	0.016221825
241	0x3df594d8	0.1199128
242	0xbcf162ec	-0.029466115
243	0xbcf2275d	-0.029559786
244	0x3e3fd245	0.18732555
245	0x3d1d7c95	0.03844889
246	0x3d9bc83d	0.07606552
247	0xbdecded1	-0.11565936
248	0xbe114cad	-0.14189406
249	0x3d0e1338	0.034686297
250	0xbdfe7ba4	-0.12425926
251	0xbd0a30ab	-0.03373782
252	0xbd8d986d	-0.069138385
253	0x3d81104d	0.06301937
254	0x3b02ae0c	0.0019940166
255	0xbe24a64e	-0.16079065

conv2.0.bias f4 [16]
0	0x3cebc35c	0.028779678
1	0x3c8d9cf3	0.017286753
2	0x3b3b4d9c	0.0028580194
3	0xbd31b617	-0.043386545
4	0x3e0e20e6	0.13879737
5	0x3d87f146	0.06637816
6	0x3ba52ff4	0.005041117
7	0x3dc43621	0.09580637
8	0x3d89c1db	0.06726428
9	0x3c6cc00d	0.014450085
10	0x3d138511	0.036015574
11	0x3d3527d0	0.04422742
12	0x3d0d23fc	0.034458145
13	0xbd515e0c	-0.05111508
14	0x3ce8f14b	0.02843537
15	0x3c89072c	0.016727053

fc1.0.weight f4 [120, 400]
0	0xbcbe36c5	-0.023219476
1	0x3bd3e709	0.0064667505
2	0x3c98e8b4	0.018665649
3	0x3bcd564d	0.0062663914
4	0xba71ba46	-0.00092211773
5	0xbc8e6187	-0.017380489
6	0x3d6293ee	0.055316858
7	0xbcb7ea9c	-0.022450738
8	0xbcd2682d	-0.02568444
9	0x3dad98a1	0.08476377
10	0xbc4e1307	-0.012577779
11	0x3c6c709e	0.014431147
12	0xbcd1ab3c	-0.025594346
13	0x3cc7a63d	0.02437126
14	0x3cbc8a93	0.023015296
15	0x3cb4f872	0.022091124
16	0x3d5c4369	0.053775225
17	0x3cd02ea8	0.025412872
18	0xbb56e671	-0.0032791162
19	0x3c995584	0.018717535
20	0x3cc5096b	0.024052342
21	0x3d23f6d2	0.040030308
22	0x3ce0d0ee	0.027443375
23	0xbc5990be	-0.013279138
24	0x3cab324f	0.020898012
25	0xbc7602be	-0.015015302
26	0x3b94b4dd	0.004538162
27	0x3de60fb6	0.112334654
28	0xbc8a752a	-0.016901571
29	0x3bb98708	0.005661849
30	0x3d152d2b	0.03642003
31	0x3dc3fdfb	0.09569927
32	0x3defccc7	0.1170898
33	0x3b8b8f46	0.004259023
34	0x3c512885	0.012766008
35	0x3d12a7d1	0.035804573
36	0xbcd2b191	-0.025719436
37	0xbc39a1b8	-0.011330061
38	0xbd49d909	-0.049279246
39	0xbd2cf855	-0.042229015
40	0xbc8b048e	-0.016969945
41	0xbcb81899	-0.022472667
42	0x3d362d19	0.044476602
43	0xbbb5a56b	-0.005543401
44	0xbc060823	-0.008180651
45	0xbd69f50f	-0.05711847
46	0x3cd17783	0.025569683
47	0x3d47ad1b	0.04874907
48	0xbbfaa7a6	-0.00764938
49	0x3bec204a	0.0072059976
50	0x3d08747e	0.03331422
51	0xbc91cdb9	-0.017798292
52	0x3d18f02c	0.03733842
53	0x3d255d7a	0.04037235
54	0x3d5d820b	0.054079097
55	0x3d174e3e	0.036939852
56	0xbc518fbf	-0.012790619
57	0x3c5a4718	0.013322614
58	0xbda602dd	-0.08106015
59	0x3bc2621d	0.005932106
60	0xbc715aa8	-0.014731087
61	0x3d2aed30	0.041730106
62	0x3bbf95b9	0.0058467058
63	0x3d06d1f0	0.032915056
64	0xbd17eed7	-0.03709301
65	0xbd78caab	-0.060740154
66	0x3d4c3dd7	0.049863663
67	0x3d298701	0.041388515
68	0x3da152d8	0.07877129
69	0xbd243fc0	-0.04009986
70	0xbc567650	-0.013089731
71	0x3d0ed8ee	0.03487485
72	0xbc88bbf3	-0.016691184
73	0xbcf0af1a	-0.02938037
74	0x3d1a6126	0.037690304
75	0x3d280de5	0.041028876
76	0xbcd861cc	-0.02641382
77	0x3b10c79f	0.002209164
78	0xbd65bc3a	-0.05608771
79	0xbc41b2c9	-0.011822411
80	0x3cf01d30	0.029310793
81	0xbc61a562	-0.0137723405
82	0x3d8e58fd	0.06950567
83	0x3d7d195c	0.061791763
84	0xbd6d1f3f	-0.057891127
85	0x3cbf6adf	0.02336639
86	0x3cd512b7	0.0260099
87	0xbd840ca5	-0.06447724
88	0x3cc31492	0.02381352
89	0x3b412a8f	0.002947483
90	0xbcd9fc63	-0.026609605
91	0xbc85139a	-0.016244698
92	0x3d6e31a4	0.05815281
93	0x3d118f2d	0.035536934
94	0x3caa544e	0.020792153
95	0xbcd8c388	-0.026460424
96	0xbc98cba0	-0.018651783
97	0x3d7c04f0	0.061528146
98	0xbcdc9936	-0.026928525
99	0xbbd0dca9	-0.006373961
100	0x3d54d355	0.051959354
101	0x3d6fffa2	0.0585934
102	0xbcaec312	-0.021333251
103	0x3da4e6a5	0.080518045
104	0xbc1e13c5	-0.009648268
105	0xbc6eefa4	-0.014583502
106	0x3d3559a3	0.044274937
107	0x3c541344	0.012944046
108	0xbcbfb79d	-0.023402983
109	0xbc62aa56	-0.013834557
110	0xbd0916b9	-0.033468936
111	0x3d2d34ca	0.04228667
112	0x3c7714b3	0.015080619
113	0x3ca031fc	0.019555084
114	0xbd254d56	-0.040356956
115	0x3d2cd9f0	0.04220003
116	0x3ad661cf	0.0016356054
117	0xbcf60315	-0.030030767
118	0x3d674a7f	0.05646753
119	0xbd27f876	-0.041008435
120	0xbcf8d686	-0.03037573
121	0x3cbaa940	0.022785783
122	0x3d37bacc	0.044855878
123	0x3b4e2e16	0.0031460575
124	0xbcc193ad	-0.023629988
125	0x3c856589	0.016283767
126	0xbba8a814	-0.0051469896
127	0x3cf3ea03	0.029774671
128	0x3b3f8ad4	0.0029227035
129	0xbcd350e4	-0.025795408
130	0x3d5af917	0.053460207
131	0xbd89686f	-0.06709372
132	0x3d6a4737	0.057196822
133	0xbd4d3f97	-0.050109472
134	0xbccdce5b	-0.025122812
135	0xbd07d889	-0.03316549
136	0x3d712368	0.058871657
137	0x3d03c6fe	0.032172196
138	0x3cf93a0e	0.03042319
139	0x3c8b711d	0.01702171
140	0x3d4f1507	0.050557163
141	0x3d0689ba	0.03284619
142	0x3d948f6b	0.07253917
143	0x3d1c6802	0.038185127
144	0x3af6e4ba	0.0018836476
145	0x3d3ad33e	0.045611612
146	0xbc136570	-0.008996353
147	0x3d5bb3ae	0.053638153
148	0xbd5a8540	-0.053349733
149	0xbc42b14f	-0.011883094
150	0xbd2688d8	-0.040657848
151	0x3b20c8cd	0.002453375
152	0x3d526595	0.051366407
153	0xbd9e4b3a	-0.07729192
154	0xbd2d66e0	-0.042334437
155	0x3d9d616c	0.076845974
156	0x3d8c761b	0.06858464
157	0xbcaf19de	-0.02137464
158	0xbd6bb979	-0.057549927
159	0x3cb5720b	0.022149106
160	0x3becc831	0.007226013
161	0xbc1ce10c	-0.00957514
162	0x3cdee4e3	0.027208751
163	0xbd9aeced	-0.07564721
164	0xbcfd60d5	-0.030929962
165	0x3aa55eac	0.0012616715
166	0x3d02c253	0.031923603
167	0xbca00778	-0.019534811
168	0x3bcb552d	0.006205222
169	0x3ca22d62	0.01979703
170	0x3c930c19	0.017950105
171	0x3c4de492	0.012566702
172	0xbd94071f	-0.07227921
173	0xbc2476d8	-0.0100381
174	0x3c8e6452	0.01738182
175	0x3cefb664	0.029261775
176	0xbd084f0d	-0.033278514
177	0xbd608a44	-0.05481936
178	0x3c16de03	0.009208205
179	0xbc88380e	-0.016628291
180	0xbce4b90b	-0.027920267
181	0xbd8be171	-0.06830109
182	0xbdb09523	-0.086221956
183	0x3da5793b	0.080797635
184	0x3cd05a86	0.02543379
185	0xbc2a718e	-0.01040305
186	0x3c96cad5	0.018407265
187	0x3cb54be5	0.022130916
188	0x3defeeae	0.117154464
189	0xb9ec807c	-0.00045109156
190	0x3c4a0f54	0.012332756
191	0x3ca49f59	0.020095514
192	0xbd074d1b	-0.033032518
193	0x3d201d53	0.039090466
194	0x3d5da761	0.054114703
195	0x3c748219	0.014923596
196	0x3d6b20c3	0.05740429
197	0x3cecfa71	0.028928014
198	0xbc11e692	-0.00890507
199	0xbd3f10a8	-0.046646744
200	0xbbd03656	-0.0063541336
201	0x3d10b5bd	0.03532957
202	0xbcec2fd5	-0.028831402
203	0x3b5f3da2	0.0034063836
204	0x3bc9d820	0.0061597973
205	0xbc85c143	-0.016327506
206	0x3c918e6a	0.017768104
207	0x3c435be4	0.011923764
208	0xbc7c786b	-0.015409569
209	0xbd058111	-0.03259379
210	0x3d2dad78	0.04240176
211	0x3a2648e1	0.0006343257
212	0x3c54925b	0.012974347
213	0xbc8b38e4	-0.016994901
214	0x3d456888	0.048195392
215	0xbc8e7b50	-0.017392784
216	0xbc1b475c	-0.009477463
217	0xbcb7506c	-0.022377215
218	0x3ce2c4fc	0.02768182
219	0x3c233ae3	0.00996277
220	0x3d286a15	0.041116793
221	0xbc8d09ef	-0.01721665
222	0xbd2a5626	-0.041586064
223	0xbce81c80	-0.028333902
224	0x3d13d178	0.036088437
225	0xbd2a1750	-0.04152614
226	0xbd644307	-0.055727985
227	0xbcfb211f	-0.030655442
228	0x3d39bd28	0.04534641
229	0x3c6349e4	0.013872597
230	0xbc90ab56	-0.017659824
231	0xbac1ad95	-0.0014776463
232	0xbc24a01e	-0.010047941
233	0x3d80c0ed	0.06286798
234	0x3baef07f	0.005338728
235	0x3c6361a7	0.013878263
236	0x3bcb3698	0.0062015764
237	0xbd31cd6f	-0.043408807
238	0x3d2ea889	0.042641196
239	0xbd0b173e	-0.033957712
240	0x3d131e3b	0.035917502
241	0x3b2f809f	0.0026779545
242	0xbc4634fd	-0.012097594
243	0xbc7698f2	-0.015051113
244	0xbcf666d1	-0.030078324
245	0x3b7d8664	0.003868484
246	0x3ce6c01b	0.028167775
247	0x3c9d07c6	0.019168746
248	0x3cddd972	0.027081225
249	0xbb6c03ce	-0.003601301
250	0xbcc49929	-0.023998814
251	0xbd06965f	-0.03285825
252	0x3d2250d1	0.039627854
253	0x3b845573	0.0040385067
254	0xbd2c611e	-0.042084806
255	0xbb1b72ef	-0.0023719629

fc1.0.bias f4 [120]
0	0x3c0527f0	0.008127198
1	0xbd365a17	-0.04451951
2	0x3d1451c3	0.036210787
3	0x3c23817b	0.009979601
4	0xbd311c4e	-0.043239884
5	0x3c98c2cb	0.018647572
6	0xbc93a591	-0.018023284
7	0x3bbeb752	0.0058201933
8	0xbd2e2997	-0.042520132
9	0x3cc25b00	0.023725033
10	0x3b536ebb	0.0032262045
11	0x3d1b96e1	0.037985686
12	0x3d2fb33b	0.042895537
13	0x3c4c4fea	0.012470225
14	0x3cdb90b5	0.0268024
15	0xbc126360	-0.008934826
16	0xbc0e998b	-0.0087036
17	0xbd2947da	-0.04132829
18	0x3bdc8906	0.0067302017
19	0x3cbad584	0.02280689
20	0xbc020154	-0.007934887
21	0x3c6c551b	0.014424588
22	0xbcda89bd	-0.026677007
23	0x3d753cf9	0.0598726
24	0x3cce917b	0.025215855
25	0x3c09f61a	0.008420492
26	0xbc7a4a7f	-0.01527655
27	0x3d03f0f9	0.03221223
28	0x3cc739eb	0.02431961
29	0x3d37b3da	0.044849254
30	0x3c976243	0.018479472
31	0xbcfd4847	-0.030918254
32	0x3d3ea55b	0.046544414
33	0x3d100068	0.035156637
34	0x3d1d74d6	0.0384415
35	0x3c5a5be8	0.013327576
36	0xbcd2386a	-0.025661666
37	0xbd2cfaf0	-0.0422315
38	0x3d2ffa4a	0.042963304
39	0x3d0caf9d	0.034347165
40	0xbcd5d28e	-0.026101377
41	0xbc992679	-0.018695103
42	0x3d2390b5	0.039932925
43	0xbd052490	-0.03250557
44	0x3cb9d96d	0.022686685
45	0x3cdecfa8	0.027198628
46	0x3d1e7300	0.03868389
47	0xbd404dcb	-0.04694919
48	0x3d070724	0.032965794
49	0xbcf0d660	-0.029399097
50	0x3d1a3c54	0.03765519
51	0xbc49a12d	-0.012306494
52	0xbb965f58	-0.0045890026
53	0x3c3ff4a6	0.011716044
54	0x3c07c107	0.008285767
55	0xbd4c6da5	-0.049909253
56	0x3cfd119d	0.030892188
57	0xbcfe08ce	-0.031010058
58	0x3c10c653	0.008836347
59	0x3d0ff606	0.035146736
60	0xbc2af093	-0.010433334
61	0x3c97771d	0.018489415
62	0x3cbe37de	0.023219999
63	0x3d3011e3	0.042985808
64	0x3d05b799	0.032645795
65	0x3c43e238	0.01195579
66	0xbc8c8ed1	-0.017157944
67	0x3bb10be1	0.0054030274
68	0xbc8e6cbf	-0.017385839
69	0x3c395ea8	0.011314072
70	0xbc832aac	-0.016011558
71	0xbce98112	-0.028503928
72	0x3c640458	0.013917051
73	0x3d3060ec	0.043061182
74	0x3aa09b7a	0.0012253367
75	0xbcf879bd	-0.030331487
76	0x3d09fafa	0.033686616
77	0x3d49621e	0.049165837
78	0x3d3cdd5f	0.046109553
79	0xbcfdc887	-0.030979408
80	0x3d2d744b	0.042347234
81	0x3d411f59	0.047149036
82	0xbca21b09	-0.019788282
83	0xbd0e7c49	-0.034786496
84	0xbc90968c	-0.017649911
85	0xbc5e6338	-0.01357346
86	0xbc391582	-0.011296632
87	0xbd089d69	-0.033353243
88	0x3ce0f7b2	0.02746186
89	0x3c3004a4	0.010743294
90	0x3c1c3d1e	0.009536056
91	0xbd26ff1a	-0.040770628
92	0xbce6b489	-0.028162258
93	0x3cef0f1c	0.02918201
94	0xbb11d417	-0.002225166
95	0xbcee1c66	-0.029066276
96	0xbd31cc55	-0.043407757
97	0xbd2452c9	-0.040118013
98	0x3c28b856	0.010297855
99	0xbc032e4e	-0.008006645
100	0x3d2efba8	0.042720467
101	0x3caca6c1	0.021075608
102	0x3b29176c	0.0025801314
103	0xbc6b1775	-0.014348854
104	0xbd0c052c	-0.03418462
105	0x3c13a0dd	0.009010521
106	0x3c538be0	0.012911767
107	0x3ce90e6b	0.028449258
108	0xbbfb7914	-0.0076743457
109	0xbd2959f8	-0.041345567
110	0xbbd93bba	-0.0066294344
111	0xbca7951a	-0.02045684
112	0xbba121e0	-0.0049173683
113	0x3d495dbf	0.04916167
114	0x3ca4aa9a	0.02010088
115	0x3c37713b	0.01119643
116	0xbca40047	-0.020019663
117	0xbd09c64b	-0.033636373
118	0x3cb6d172	0.022316668
119	0x3ce86ad6	0.028371256

fc2.0.weight f4 [84, 120]
0	0x3de9fc61	0.114250906
1	0xbcad0965	-0.021122644
2	0x3ddb8cd8	0.10720223
3	0x3b09ddac	0.0021036668
4	0xbd1172e8	-0.035509974
5	0xbc8e7c40	-0.017393231
6	0xbd9fe56e	-0.07807432
7	0xbd96b4a7	-0.073586755
8	0xbd5af393	-0.053454947
9	0x3c807c76	0.015684348
10	0x3c3cf49f	0.011532932
11	0x3da5d0d4	0.080964714
12	0x3d9197f6	0.071090624
13	0x3d4bec26	0.049785756
14	0x3d540cd6	0.051770054
15	0xbce6ff07	-0.028197778
16	0x3dafba0a	0.08580406
17	0x3dcf7b2e	0.101309165
18	0xbe0868ee	-0.13321277
19	0xbd5c2a8f	-0.053751525
20	0x3d75db04	0.060023323
21	0xbde945e8	-0.11390287
22	0x3d08aae2	0.03336609
23	0xbd2b3433	-0.041797828
24	0x3d8cd117	0.06875818
25	0xbddd71e7	-0.10812741
26	0x3cc058dd	0.023479873
27	0x3da03811	0.07823194
28	0xbd80b971	-0.0628537
29	0xbd837290	-0.064183354
30	0xbdb0e734	-0.086378485
31	0x3dffe4c9	0.12494809
32	0x3d086370	0.033297956
33	0xbcdd13d6	-0.026986998
34	0xbda12fc4	-0.07870439
35	0x3d42e516	0.047581755
36	0xbe13a6f6	-0.1441916
37	0xbb3ea6ab	-0.002909104
38	0xbc86c307	-0.016450418
39	0x3dc6b44d	0.097023584
40	0x3c4e5176	0.012592664
41	0xbd0ab4a2	-0.03386367
42	0xbda0239e	-0.078192934
43	0x3daf5efb	0.08563038
44	0xbd956690	-0.07294953
45	0x3d3f40de	0.04669272
46	0xbb203de3	-0.002445095
47	0x3d074c05	0.033031482
48	0x3d8a58e7	0.06755238
49	0xbcf6f0d5	-0.030144135
50	0x3dee879c	0.11646959
51	0xbcb8cd64	-0.022558875
52	0xbd8584bc	-0.06519458
53	0xbc4aa737	-0.012368969
54	0x3d8b0342	0.06787731
55	0x3e0c3b61	0.13694526
56	0x3d18e606	0.037328742
57	0xbc854521	-0.016268315
58	0x3dbf1faa	0.09332211
59	0xbd3bdd18	-0.04586515
60	0x3d75a1a1	0.059968594
61	0x3ce30f1e	0.02771717
62	0x3d7681d0	0.060182393
63	0xbdb938f8	-0.09044069
64	0xbe1bf3fe	-0.15229794
65	0xbd782407	-0.060581233
66	0x3d2c4d76	0.04206606
67	0xbdb5137c	-0.08841607
68	0x3d23c2b5	0.03998061
69	0xbd8f5051	-0.06997741
70	0x3e144b68	0.1448189
71	0x3d8280ac	0.063721985
72	0x3d6b6ed5	0.057478745
73	0xbb3eb6f4	-0.0029100748
74	0xbcfeb128	-0.031090334
75	0x3d852a4d	0.06502209
76	0xbe0709d0	-0.13187337
77	0xbd922111	-0.07135213
78	0x3ca23e8a	0.019805212
79	0x3dd0b678	0.10191053
80	0x3da279ee	0.079334125
81	0xbd4048dd	-0.046944488
82	0xbc81e995	-0.01585845
83	0x3b9e4a54	0.004830638
84	0xbe2349c1	-0.15946104
85	0xbd718622	-0.05896581
86	0x3d3fea7d	0.046854485
87	0x3d9faa7c	0.07796189
88	0x3da34364	0.07971838
89	0x3dc149a8	0.09437877
90	0xbcf2e426	-0.029649805
91	0x3e01fa2c	0.12693089
92	0x3d2b2d40	0.0417912
93	0xbd255a6b	-0.040369432
94	0xbd9c761e	-0.076397166
95	0x3a793d48	0.0009507728
96	0xbd89b5b0	-0.06724107
97	0x3d608662	0.054815657
98	0xbcc76be4	-0.024343438
99	0xbd8294ce	-0.063760385
100	0xbda374ea	-0.07981284
101	0x3de8f26d	0.11374364
102	0xbd04a1ff	-0.032381054
103	0x3d0799e7	0.033105757
104	0xbda9eb19	-0.082967944
105	0x3aa2787b	0.0012395525
106	0x3910d0a7	0.00013810639
107	0x3dae20ce	0.08502351
108	0x3b2b8208	0.0026170034
109	0x3d36c988	0.04462579
110	0xbd36e893	-0.044655394
111	0x3d2cb6cf	0.042166527
112	0xbdb7769c	-0.0895817
113	0xbcd00420	-0.025392592
114	0x3cea7268	0.028619006
115	0xbc42d66b	-0.011891942
116	0x3d5695da	0.052389003
117	0xbc50a60d	-0.012734902
118	0x3d9b055e	0.07569383
119	0x3cf7ff6e	0.030273166
120	0x3d761c3c	0.06008552
121	0x3d05cafa	0.032664277
122	0xbd9ddf05	-0.07708553
123	0xbc4efb58	-0.012633167
124	0xbcd2368b	-0.025660774
125	0x3da580da	0.08081217
126	0x3c8181f1	0.015809031
127	0xbd97daa7	-0.074147515
128	0xbc986ea9	-0.018607454
129	0x3da02a15	0.078205265
130	0xbd9af81b	-0.075668536
131	0xbcb43562	-0.021998111
132	0xbd93e898	-0.07222098
133	0x3c3f3400	0.011670113
134	0x3cdcf6da	0.026973177
135	0xbdb6cf67	-0.089262776
136	0xbd2ac83d	-0.04169487
137	0xbcc7b3cf	-0.024377732
138	0xbd9fb477	-0.07798093
139	0xbb073b15	-0.002063458
140	0xbd8b58a7	-0.068040185
141	0xbd3fd1f7	-0.046831097
142	0xbd6c5bfd	-0.057704914
143	0xbd204bf1	-0.039134923
144	0x3bfa8a3b	0.007645873
145	0xbd93f230	-0.07223928
146	0x3d95f029	0.073211975
147	0x3b594866	0.0033154725
148	0xbd441460	-0.047870994
149	0xbd5cac87	-0.053875472
150	0xbbfc154b	-0.007692968
151	0x3d99d153	0.075106286
152	0x3ceb971f	0.028758584
153	0x3d9c1a39	0.07622189
154	0x3aaf2477	0.0013362308
155	0x3d0f87fd	0.035041798
156	0x3b68cb36	0.0035521514
157	0xbd4d57e5	-0.05013265
158	0xbd61fa1c	-0.055170164
159	0x3d4527cd	0.04813366
160	0x3cbd4263	0.023102945
161	0xbd26afd3	-0.040695023
162	0xbda823c4	-0.08209947
163	0x3db58dde	0.0886495
164	0x3d1b88d8	0.0379723
165	0x3d22c306	0.03973677
166	0x3d34f056	0.044174515
167	0x3c817c16	0.01580624
168	0x3c2181ac	0.009857576
169	0xbc900841	-0.01758206
170	0x3d879340	0.066198826
171	0xbd29d10c	-0.04145913
172	0x3ccfc45c	0.025362186
173	0xbcb30e72	-0.021857474
174	0xbd687ddc	-0.056760654
175	0x3c6aa36a	0.0143211875
176	0x3d98e11c	0.07464811
177	0xbccbaeeb	-0.02486368
178	0x3dd2aa63	0.10286405
179	0x3d57c87b	0.052681427
180	0xbce1051a	-0.027468253
181	0xbd405e03	-0.046964657
182	0xbcdb0e2f	-0.026740162
183	0x3da4bf67	0.080443196
184	0x3d2a96c3	0.041647684
185	0xbd5782ac	-0.052614853
186	0x3dbd63a6	0.09247522
187	0x3cedd27f	0.029031036
188	0xbd1e2f69	-0.038619433
189	0x3db92ed8	0.09042138
190	0xbd627e9d	-0.05529653
191	0x3d1b0bb3	0.037852954
192	0xbd8e76af	-0.06956231
193	0x3d5ca94a	0.053872384
194	0xbd1c725a	-0.03819499
195	0x3d92a054	0.071594864
196	0xbd9250fc	-0.07144353
197	0x3cfaa1d8	0.030594751
198	0x3d614b2b	0.055003326
199	0xbcba2545	-0.02272285
200	0x3d59654c	0.05307512
201	0xbbbf59fa	-0.0058395835
202	0xbdb43fbb	-0.08801218
203	0x3c8a8a43	0.016911631
204	0xbdb7e310	-0.089788556
205	0xbd22d280	-0.03975153
206	0x3ce92fe0	0.028465211
207	0xbcbd6552	-0.023119602
208	0xbc8024f4	-0.01564262
209	0x3d31c059	0.043396328
210	0x3da23288	0.07919794
211	0x3a9e0c39	0.0012058086
212	0x3cacf9e0	0.021115243
213	0xbdc1b7ec	-0.094589084
214	0xbccfe9bc	-0.025380008
215	0x3ce7f3c9	0.028314488
216	0x3d37ead6	0.04490169
217	0x3d94e3ae	0.07269989
218	0x3db46ca2	0.088097826
219	0xbd576b2c	-0.05259244
220	0x3d713b92	0.0588947
221	0x3d80b614	0.06284729
222	0xbdb37b78	-0.08763784
223	0x3d426657	0.04746088
224	0xbd7bfeea	-0.061522402
225	0x3d5aef11	0.053450648
226	0xbdac116f	-0.08401763
227	0xbdb251a9	-0.08706982
228	0xbd9d6c0e	-0.076866254
229	0xbd61653f	-0.055028196
230	0xbd8bd230	-0.068271995
231	0x3c4b39fe	0.012403963
232	0xbd31cce8	-0.043408304
233	0xbd5ed167	-0.05439892
234	0x3bd3f9b0	0.006468974
235	0xbc502953	-0.012705165
236	0xbb0a39d4	-0.0021091597
237	0x3d9b17d8	0.07572907
238	0x3d03d38e	0.032184176
239	0xbd62365e	-0.05522763
240	0xbd3efd56	-0.04662832
241	0xbbde5b77	-0.006785806
242	0x3d897b26	0.06712942
243	0x3d27a6a9	0.040930424
244	0xbd8cae16	-0.06869142
245	0x3cffd71c	0.031230502
246	0x3d9639c0	0.07335234
247	0x3dacc221	0.08435465
248	0xbd64aa92	-0.05582673
249	0x3c0c54ce	0.008565141
250	0xbd1e3d36	-0.038632594
251	0x3cc2c6eb	0.023776492
252	0xbc10c250	-0.00883539
253	0x3dac7cf0	0.084222674
254	0xbd7dda11	-0.061975542
255	0xbd3b2fbf	-0.04569983

fc2.0.bias f4 [84]
0	0x3d5b67d7	0.053565826
1	0xbdb46cf6	-0.08809845
2	0x3b9e108d	0.0048237504
3	0xbcbce0bf	-0.023056386
4	0xbd820f20	-0.06350541
5	0x3de8b522	0.11362673
6	0x3bd8618c	0.0066034254
7	0xbdb3baa8	-0.08775836
8	0xbd17cb68	-0.037059218
9	0x3d098bbd	0.03358053
10	0x3d9e6ad2	0.07735218
11	0xbda2d8bf	-0.07951497
12	0x3deebdcc	0.11657295
13	0x3be5ee20	0.007016912
14	0xbd6da8a7	-0.058022168
15	0xbcb471e6	-0.022026967
16	0xbd899b35	-0.067190565
17	0xbdac9ca5	-0.08428315
18	0xbd531883	-0.051537048
19	0xbbbf0819	-0.0058298227
20	0x3b6876d6	0.0035471222
21	0xbdd41bbb	-0.10356852
22	0xbda2a703	-0.07942011
23	0x39882c01	0.00025972727
24	0xbd5cf400	-0.053943634
25	0x3b853b64	0.004065918
26	0x3d9a368f	0.075299375
27	0x3d9d1e22	0.07671763
28	0xbcfa47eb	-0.030551871
29	0x3d9939f5	0.074817576
30	0x3da9caa3	0.08290603
31	0xbd1868f7	-0.037209477
32	0x3cfbe47b	0.030748596
33	0x3d9300a5	0.07177857
34	0x3c0df0f6	0.008663407
35	0xbd75d0e2	-0.06001366
36	0x3c7a92be	0.015293775
37	0xbd9779b6	-0.073962614
38	0xbdc05a4b	-0.09392222
39	0x3dd31c31	0.103081115
40	0x3cf66edd	0.03008216
41	0xbdae0ea4	-0.08498886
42	0xbc14fdc5	-0.0090937065
43	0x3d5526d0	0.052038968
44	0x3d4e911b	0.050431352
45	0x3da26ac6	0.07930522
46	0x3d83299e	0.06404422
47	0xbd9e6c75	-0.0773553
48	0x3dba75c9	0.09104497
49	0x3e036cf9	0.12834539
50	0x3de82a4e	0.11336194
51	0x3deed079	0.11660857
52	0xbd8cc0a9	-0.068726845
53	0x3d614248	0.05499485
54	0xbcb5caa2	-0.02219135
55	0xbd128c1c	-0.03577815
56	0x3d871657	0.06596058
57	0x3d816ecf	0.06319963
58	0xbd30396f	-0.043023523
59	0x3d977855	0.073959984
60	0xbcb53c38	-0.022123441
61	0x3d691044	0.056900278
62	0x3daed809	0.08537299
63	0x3da9d6dc	0.08292934
64	0x3cb82c2c	0.022482
65	0xbc98602e	-0.01860055
66	0x3d8c5a9f	0.06853222
67	0x3d32fb19	0.043696497
68	0x3c866d93	0.016409671
69	0x3c6b875f	0.014375537
70	0x3d3523d5	0.044223625
71	0x3d70e9bd	0.05881666
72	0xbd2be25a	-0.041963913
73	0x3ab081ed	0.0013466455
74	0xbd79ea31	-0.061014358
75	0x3e14482d	0.14480658
76	0xbd89c678	-0.06727308
77	0xbc94bc35	-0.01815615
78	0xbd03b036	-0.03215047
79	0x3db39b2a	0.087698296
80	0x3db808b9	0.08986039
81	0x3d958055	0.07299868
82	0x3d6e8fdf	0.058242675
83	0xbd7a512a	-0.06111256

fc3.weight f4 [10, 84]
0	0x3d69e523	0.057103287
1	0x3daba629	0.08381302
2	0x3d756b4e	0.059916787
3	0xbe3d8c97	-0.18510662
4	0xbdeacf5a	-0.114653304
5	0xbe41775d	-0.1889319
6	0x3cbd843c	0.023134343
7	0xbd343051	-0.04399139
8	0xbd598156	-0.05310186
9	0x3e3353dc	0.17512459
10	0x3ddfd22b	0.10928758
11	0xbe18fb63	-0.14939646
12	0xbd281d59	-0.041043613
13	0x3cfb8c24	0.030706473
14	0x3dabfc94	0.08397785
15	0xbca423a8	-0.020036533
16	0x3dee6ff6	0.116424486
17	0xbdb011ab	-0.0859712
18	0x3da5ae82	0.08089925
19	0xbd90d4f8	-0.070718706
20	0x3a679821	0.00088346197
21	0x3dc20628	0.094738305
22	0xbde46d16	-0.11153619
23	0x3dec5eac	0.11541495
24	0x3daef160	0.085421324
25	0x3d185253	0.037187885
26	0x3de0ba04	0.1097298
27	0x3e00a771	0.12563874
28	0x3c9ac33f	0.018891929
29	0x3c4032a1	0.011730821
30	0xbd3f64a3	-0.046726834
31	0x3ea7ef38	0.32799697
32	0x3e29fca7	0.16600285
33	0xbe7b80f2	-0.24560907
34	0x3d58cc45	0.05292918
35	0x3b2e8d91	0.0026634673
36	0x3da48f3f	0.080351345
37	0xbda35237	-0.079746656
38	0x3d33b0d3	0.043869805
39	0xbe3d2409	-0.18470778
40	0x3d967b42	0.07347728
41	0xbd488ceb	-0.048962515
42	0xbb60e955	-0.0034318764
43	0x3e08c0d3	0.13354807
44	0xbe84aab4	-0.25911486
45	0x3e248795	0.16067345
46	0x3e3fc3f8	0.187271
47	0x3c3e04ed	0.011597854
48	0x3c686e34	0.014186431
49	0xbde2a36f	-0.11066329
50	0xbe8c2f0e	-0.2737965
51	0xbea55cb5	-0.32297292
52	0x3d163b64	0.036677733
53	0x3ea22853	0.3167139
54	0xbd9c8d17	-0.07644098
55	0xbd5900e2	-0.052979358
56	0xbe5ec53c	-0.21754926
57	0xbcebb3ea	-0.028772313
58	0xbdcf607f	-0.10125827
59	0xbe64beee	-0.22338459
60	0xbdace337	-0.08441775
61	0x3d0694e0	0.032856822
62	0xbe939c57	-0.28830215
63	0xbd60564f	-0.05476981
64	0x3d813e3e	0.063107
65	0xbe428836	-0.18997273
66	0x3dccba06	0.09996419
67	0x3de04da7	0.10952311
68	0xbd20a5e5	-0.03922071
69	0x3e007a79	0.1254672
70	0xbdd4d4cf	-0.103921525
71	0x3e062aec	0.13102311
72	0x3dd71840	0.10502672
73	0xbe8b0d94	-0.27158797
74	0xbd9f6e88	-0.07784754
75	0xbdb03021	-0.0860293
76	0xbe6d753e	-0.23189256
77	0x3e5bd19e	0.21466681
78	0xbd2738c0	-0.040825605
79	0x3e2f038d	0.17091198
80	0xbe1586c3	-0.14602189
81	0x3d9bab74	0.076010615
82	0x3e12a175	0.14319403
83	0x3e48591b	0.19565241
84	0x3df612db	0.12015315
85	0xbdd6747f	-0.104714386
86	0x3d54da1b	0.051965814
87	0xbdc625f2	-0.09675206
88	0xbda7849f	-0.08179592
89	0x3e9207e6	0.2852165
90	0xbc8e0eea	-0.017341096
91	0xbda8e2e5	-0.08246402
92	0x3d4cb00a	0.04997257
93	0xbe17e886	-0.14834794
94	0x3d7ddfb7	0.06198093
95	0x3d80e4a0	0.06293607
96	0x3e236efd	0.15960307
97	0xbd3b2bf2	-0.045696206
98	0xbdc99f0e	-0.098447904
99	0xbda34920	-0.07972932
100	0xbd3adad5	-0.04561885
101	0x3da8910f	0.08230793
102	0x3ce471c9	0.027886288
103	0x3d607bbd	0.054805506
104	0xbe465e47	-0.19371901
105	0x3dcb175d	0.099165656
106	0xbce27b47	-0.027646674
107	0xbe1ac39b	-0.1511368
108	0x3cbf0753	0.023318922
109	0xbd939591	-0.07206262
110	0x3e6f9cdc	0.23399681
111	0x3e44730a	0.19184509
112	0x3cede222	0.029038493
113	0xbe043c70	-0.1291368
114	0xbe15d5c7	-0.14632331
115	0xbe32b642	-0.17452338
116	0x3d955d06	0.072931334
117	0xbd758a90	-0.059946597
118	0xbdb6823d	-0.0891156
119	0xbe635b81	-0.22202875
120	0xbcb65efc	-0.022262089
121	0xbdbc448b	-0.09192761
122	0xbe15c1a3	-0.14624648
123	0xbe936878	-0.2879064
124	0xbe0bb005	-0.13641365
125	0xbd9d2dc1	-0.076747425
126	0x3d5bcd42	0.053662546
127	0x3cd2fae8	0.025754407
128	0x3e1541f4	0.1457594
129	0x3dc28e3b	0.094997846
130	0x3ea02132	0.31275326
131	0xbd39bd91	-0.0453468
132	0xbddba6ba	-0.1072516
133	0x3e7d2cb8	0.2472409
134	0x3e072f0b	0.13201539
135	0x3d944ca8	0.072411835
136	0xbddc5242	-0.10757877
137	0xbe733abe	-0.23752877
138	0x3c3c4ace	0.011492444
139	0x3dc62582	0.09675123
140	0x3d087df8	0.03332326
141	0x3cd5436f	0.026033131
142	0x3d86ddf7	0.06585305
143	0x3eac4914	0.33649504
144	0xbc7edaf1	-0.015555129
145	0xbd7d1bfe	-0.061794274
146	0x3e0d8a21	0.13822223
147	0xbe0c6bb0	-0.13712955
148	0xbc2a7e80	-0.0104061365
149	0x3efda4c0	0.49539757
150	0xbe445b1d	-0.19175382
151	0xbde1ac1b	-0.11019155
152	0xbe8a5e21	-0.2702494
153	0xbd5a9125	-0.053361077
154	0x3e3689a2	0.1782594
155	0xbe37730f	-0.17914985
156	0xbd9a6d10	-0.07540333
157	0x3c3b36e5	0.011426662
158	0xbcb8291f	-0.022480546
159	0x3e9090cd	0.28235474
160	0x3dab8635	0.08375207
161	0xbe7ab42d	-0.24482794
162	0x3d0834ed	0.0332536
163	0x3cebde67	0.028792573
164	0x3e26610f	0.16247962
165	0xbd761724	-0.060080662
166	0x3d89aed7	0.06722801
167	0xbd918128	-0.07104713
168	0xbc3c1ccb	-0.011481474
169	0xbd93e3df	-0.07221197
170	0xbc9bccc1	-0.019018533
171	0x3dc4beff	0.09606742
172	0xbcd88e8d	-0.026435161
173	0xbdc48143	-0.09594967
174	0x3b83b2af	0.0040191035
175	0x3bc4c150	0.00600449
176	0x3daef1d7	0.08542221
177	0x3d51e04c	0.051239297
178	0xbe06e953	-0.13174944
179	0xbdfd68bf	-0.12373494
180	0xbd87d238	-0.06631893
181	0x3bff7560	0.0077959746
182	0xbe81d868	-0.25360417
183	0x3dad3d50	0.0845896
184	0xbd9111f7	-0.07083505
185	0xbe64ed96	-0.22356257
186	0x3d27d587	0.04097512
187	0xbd929ab2	-0.07158412
188	0x3ce2a0e3	0.027664607
189	0xbcc8e9b0	-0.024525493
190	0x3ca7f970	0.020504683
191	0x3e51c3ee	0.20484897
192	0x3e3dde8a	0.18541923
193	0x3dd3e133	0.10345688
194	0x3e15c844	0.14627177
195	0x3d5e8217	0.054323282
196	0xbb31350a	-0.002703967
197	0x3e576c4a	0.21037403
198	0xbe6f0f82	-0.2334576
199	0x3d048e12	0.03236205
200	0x3cc10ef1	0.023566695
201	0x3db20e93	0.08694186
202	0x3d719db7	0.0589883
203	0x3cf0365e	0.0293228
204	0x3d2bad4d	0.04191332
205	0xbdc8ffb4	-0.098143965
206	0xbe436616	-0.19081911
207	0xbcd1e21a	-0.025620509
208	0xbe3223ca	-0.17396465
209	0x3d12a52b	0.035802048
210	0x3d9e93af	0.07743012
211	0x3dc2ebe7	0.09517651
212	0x3e6c2fee	0.23065159
213	0x3e10b00c	0.14129657
214	0xbc47f109	-0.012203463
215	0x3ca2b024	0.019859381
216	0x3e3b8f98	0.18316495
217	0xbe4e3d7f	-0.20140646
218	0xbe72a64c	-0.2369625
219	0x3e1bc819	0.1521305
220	0x3e198f6a	0.14996114
221	0xbe6544d9	-0.22389545
222	0xbd8e4248	-0.06946236
223	0xbdac65b3	-0.08417835
224	0x3e2fa670	0.17153335
225	0x3cced08c	0.025245927
226	0xbe02d9c5	-0.12778385
227	0x3eaff5cf	0.34367225
228	0x3d0705e3	0.0329646
229	0x3d62f889	0.055412803
230	0xbe744f87	-0.23858462
231	0x3dd704b5	0.10498945
232	0x3d71c003	0.059021007
233	0xbe9d958f	-0.30778167
234	0x3ea100ee	0.31446022
235	0x3d3ac02c	0.045593426
236	0xbce29f67	-0.0276639
237	0x3bf2b07d	0.007406293
238	0x3df83f59	0.121214576
239	0xbd521856	-0.05129274
240	0x3cb49935	0.022045711
241	0xbe7ca7e3	-0.24673419
242	0x3dfdb91f	0.12388825
243	0xbe51bf89	-0.20483221
244	0xbc776ce2	-0.015101643
245	0xbe1cf4e2	-0.1532779
246	0x3dbb0acb	0.09132918
247	0x3e2f3f66	0.17114028
248	0x3e4198d8	0.18905962
249	0x3db42598	0.08796233
250	0xbdad2ca6	-0.08455782
251	0x3e7e883e	0.2485666
252	0xbc81ee64	-0.015860744
253	0x3d7dea83	0.061991226
254	0xbde7c765	-0.11317328
255	0xbe01ba83	-0.12668805

fc3.bias f4 [10]
0	0xbdb34ff3	-0.087554835
1	0x3e0200b0	0.12695575
2	0xbc4bf84f	-0.012449338
3	0xbcc827a3	-0.024432963
4	0xbd30aadc	-0.043131694
5	0xbd9970be	-0.07492207
6	0x3ce106c8	0.027469054
7	0x3cf473f7	0.029840453
8	0xbcc6fd82	-0.024290804
9	0xbdb7f5a2	-0.089823976
